actormodel.pth (torch_old, 767253 bytes, 7 tensors)

fc1.weight f4 [300, 29]
00000000: f1a6 813a a620 89ba 37a3 81ba c96b 9dba
00000010: 4ec3 84ba 724e a7ba a9af 99ba cf4b 90ba
00000020: 17a1 8aba e61c 8eba 1ed6 96ba 5be7 a4ba
00000030: 31ed 8eba 3bf8 81ba 832b 8fba 2b0d a1ba
00000040: 053a 8dba 2f51 a7ba 0127 98ba 9e28 a6ba
00000050: 3e67 8fba af9e a7ba 54bd 69ba 6bab 603a
00000060: 6aa8 8cba 4c4e 88ba adf7 a5ba 49a4 9cba
00000070: 118f 9dba cb2e d23e a746 dc3d 9fd0 3d3c
00000080: 7f01 9a3b f38a 063c e911 213c 4892 8d3c
00000090: 1b3e 893c 54e7 1a3c 7f22 0f3c 15b9 f63b
000000a0: ca20 bb3b bd78 b03b b86c 053c 4c59 2b3c
000000b0: 6925 873c fa13 ef3c 6be3 a03b 2bae 34bd
000000c0: 8c4a e3bc 6076 78bd 0403 7f3c 5a2f db3d
000000d0: 1bb9 893e 45d7 cf3b 91bc b13c 2db7 2f3c
000000e0: 3f60 883c d6c4 3d3b bd43 d1be eda3 05be
000000f0: d171 85bb 44e4 a03c c06c 1f3d 37bc 303d
00000100: ae6f 1a3d b0fc 413d c02b 663d c3e7 773d
00000110: 6136 803d ed68 893d cb30 8d3d 933c 933d
00000120: 64dc 9a3d 0471 ab3d 8190 b23d e9c9 e33d
00000130: a12c 083e a31a 853d d457 6e3d 30ba d53c
00000140: 2e70 b7bd 271c 90be c671 123d 0f32 a23c
00000150: 29c0 f93c c6bb cb3c 9950 c43c 1fb9 963a
00000160: 35ba 6dbb 03b7 14bb e292 27bb 884c 2abb
00000170: b2fe 2dbb 69c4 16bb 045e 1fbb c02c 23bb
00000180: 13da 2bbb cfa8 22bb 1586 26bb 0902 22bb
00000190: dde0 22bb b603 28bb 8a1e 2ebb cf46 22bb
000001a0: 486d 27bb 8a96 15bb 3c58 2cbb dfbe 17bb
000001b0: 81fe 32bb cf32 8bba fb63 80ba 2c88 30bb
000001c0: f052 21bb 1888 33bb 20b9 27bb 1e54 38bb
000001d0: ac51 d03e 150d e13d 7825 7a3c 6ae6 083c
000001e0: b256 3d3c c6d9 503c b3a5 a13c e4d1 993c
000001f0: 419d 3a3c cd2c 303c 6cc4 153c b4eb ef3b
00000200: dfa6 dc3b da31 1b3c 2f0f 433c c64e 8e3c
00000210: d634 f83c 0171 093c d914 19bd 8777 bdbc
00000220: 15bf 76bd eea7 973c 3b06 e33d 03f2 873e
00000230: 6d45 193c 856a c93c e09f 5f3c 09fa 9d3c
00000240: d119 ba3b 20b9 18ba 1e88 31ba 3dc4 04ba
00000250: df8f 1dba dfde eab9 6ec7 35ba 8508 4eba
00000260: c340 42ba 60d8 2cba fbf3 d0b9 ed6e e1b9
00000270: 69e7 19ba 42b4 2aba a2f9 dfb9 6423 1fba
00000280: fad5 29ba 7117 cbb9 0789 acb9 4071 03b9
00000290: f3b1 5db9 ef10 fd39 2615 4bba 6660 88b9
000002a0: d855 bfb8 6df4 2eba 133f 4eba 2c45 f8b9
000002b0: 4f3c 5eba f8e8 56ba 7499 d23e 0a3a dd3d
000002c0: 1a00 4c3c 447c ac3b 5d94 0f3c 2ba8 2b3c
000002d0: 625c 8f3c 1bb2 893c d0b9 1e3c f4bc 103c
000002e0: e39e f23b 5c4c bd3b f686 ac3b e1b0 013c
000002f0: e517 283c 0c0d 843c 567b eb3c bac2 9b3b
00000300: 58e3 33bd 7a14 e0bc 22aa 77bd 5e81 813c
00000310: 0441 dd3d fcac 893e d19d dd3b 11c0 b23c
00000320: 19a1 3b3c e683 8c3c be87 553b d032 d03e
00000330: 8574 e13d b56d 763c baa8 043c a73c 3b3c
00000340: 9be7 4f3c ec76 a13c c1ed 9a3c d6ab 3d3c
00000350: cd32 303c 294c 183c 6780 f13b ecdd e13b
00000360: 7234 1c3c fbe4 423c 7592 8d3c d962 f73c
00000370: 5f9a 063c 340f 18bd 387a bfbc c345 77bd
00000380: caa6 953c bed9 e23d 7aed 873e c2a6 1a3c
00000390: ab0e ca3c c874 5e3c fc6f a03c a404 b83b
000003a0: 72f8 443b dbdc 3bbb 36ad 31bb 8916 42bb
000003b0: c49c 3bbb 99e7 35bb 1962 3fbb b4d5 3fbb
000003c0: 13d5 3abb 059f 3bbb 38c1 3dbb f30a 40bb
000003d0: 5c81 42bb 91f3 4abb 698d 3bbb ea40 3dbb
000003e0: 94e8 39bb 6ca0 3dbb 4d8e 33bb 63e4 41bb
000003f0: 38f6 36bb 798a 41bb 7832 22bb f80b b43a
0.0009891671 -0.0010462 -0.0009890561 -0.0012010272 -0.0010129006 -0.0012764467 -0.0011725324 -0.0011008921
-0.0010576573 -0.0010842353 -0.0011507904 -0.0012581156 -0.0010904429 -0.0009915897 -0.0010923002 -0.001228725
-0.0010774737 -0.0012765283 -0.0011608304 -0.00126769 -0.0010940803 -0.001278838 -0.0008916457 0.0008570465
-0.0010731344 -0.0010399311 -0.0012662314 -0.0011950816 -0.0012020787 0.41051325 0.10755663 0.011585384
0.0046998854 0.008211839 0.00983093 0.017281666 0.016753247 0.009454567 0.008736252 0.0075293877
0.005710696 0.005385487 0.008143596 0.010458302 0.01649733 0.02918433 0.004909923 -0.044111412
-0.027745508 -0.060659766 0.015564684 0.10702391 0.26899037 0.006342801 0.02169636 0.010724825
0.016647456 0.0028956435 -0.40871993 -0.13050814 -0.004072406 0.019640096 0.03892207 0.043148246
0.037704162 0.047360122 0.056194067 0.06052376 0.06260372 0.06709466 0.06894072 0.07189288
0.075615674 0.083711654 0.08718968 0.11122496 0.13298275 0.06499221 0.05818923 0.026089758
-0.089569435 -0.2814648 0.035753034 0.01979926 0.030487137 0.02486981 0.023964213 0.0011499262
-0.0036274318 -0.0022692091 -0.0025569727 -0.0025985558 -0.0026549515 -0.0023005253 -0.0024317512 -0.00248985
-0.0026222512 -0.0024819856 -0.002540951 -0.0024720451 -0.0024853267 -0.0025636978 -0.0026568496 -0.0024761443
-0.0025547314 -0.0022825324 -0.002629771 -0.002315454 -0.002731234 -0.001062 -0.0009795422 -0.0026936634
-0.0024616085 -0.002739435 -0.002559252 -0.002812631 0.4068731 0.10988823 0.015267722 0.008355716
0.011556314 0.012747234 0.019732332 0.018776841 0.011390031 0.010752869 0.009141069 0.007321799
0.00673376 0.009472335 0.0119054755 0.017371546 0.030298632 0.008388759 -0.037373397 -0.023128284
-0.060240824 0.018512692 0.11085173 0.26551828 0.009354931 0.024586925 0.013648957 0.019284265
0.005679347 -0.00058259256 -0.0006772297 -0.0005064642 -0.0006010513 -0.0004479801 -0.00069343194 -0.0007859546
-0.0007410163 -0.00065935217 -0.0003985463 -0.0004299799 -0.00058709696 -0.0006511846 -0.00042719865 -0.0006070642
-0.00064787234 -0.00038736642 -0.0003290849 -0.00012535322 -0.00021142494 0.00048268537 -0.0007746987 -0.00026011764
-9.1235794e-05 -0.00066739955 -0.0007867675 -0.00047353783 -0.00084776146 -0.0008198167 0.411327 0.10802086
0.012451196 0.005263837 0.0087634 0.010477106 0.017500106 0.01680856 0.009687856 0.008834112
0.0074041947 0.005776925 0.005265112 0.007915706 0.010259603 0.016119502 0.028745335 0.004753438
-0.043917984 -0.027353514 -0.060464986 0.015808757 0.10803416 0.2688979 0.006763198 0.0218201
0.011451983 0.017152738 0.003258213 0.40663767 0.110085525 0.015040805 0.008096868 0.011428035
0.012689496 0.019710027 0.018912198 0.011576613 0.010754299 0.009295502 0.007370043 0.00689291
0.009533988 0.0118954135 0.01728175 0.030198501 0.008215516 -0.037123874 -0.023373708 -0.060369264
0.018268008 0.11076687 0.26548368 0.009439172 0.024665197 0.0135776475 0.019584648 0.0056157876
0.0030055312 -0.0028665576 -0.0027111298 -0.0029615483 -0.0028627375 -0.002775645 -0.0029202758 -0.0029271664
-0.002850835 -0.0028628719 -0.0028954279 -0.0029303401 -0.0029679155 -0.003096793 -0.0028618223 -0.0028877803
-0.0028367387 -0.002893473 -0.002739805 -0.0029585592 -0.0027917754 -0.0029532 -0.002474932 0.0013736477

fc1.bias f4 [300]
00000000: 9438 99ba eded fa3b 7a49 bb3c 6cc1 36bb
00000010: acf6 3b3c fb5b 39ba a594 073c 7b19 3c3c
00000020: 67bf 3dbb e19b 393c 151d 3c3c bc36 3b3c
00000030: 77a6 6eb9 8e67 3a3c 245f 3b3c 7d87 28ba
00000040: f402 873b e7f3 513c d931 3cba 738e 88b9
00000050: 385e 3b3c d2e4 393c 6623 393c 3f34 923c
00000060: d205 66ba 823e 8d3d 58e1 f83b eb4b 58ba
00000070: ce44 3a3c 0000 0000 6814 3b3c 8e0e 21ba
00000080: 0000 0000 3c74 3b3c 38ab 3e3c 95fb 013c
00000090: 0637 38ba 5ac2 96b9 943b 363c 4f37 3b3c
000000a0: 4b51 37ba a36d 123c 31b0 3a3c 4efa 9cbb
000000b0: bd3f 99ba 2cf9 18ba 2c99 373c 4b21 363c
000000c0: cafb 3c3c fc57 c23c 29e5 9bba f42b 99ba
000000d0: 513a c43c b687 a1b9 22e7 c2bc ec28 3f3c
000000e0: 9a6a 393c fae5 3b3c 8501 59bb 10ea 07ba
000000f0: 1794 a2ba 67b9 1fba 0000 0000 0895 3b3c
00000100: 1be3 e0bb 1a48 fb3b 392f 14ba 2071 4c3d
00000110: c5b7 3b3c a6da 3a3c 825b 3b3c 7abc 3c3c
00000120: ec33 a2ba 878a 31b9 9891 5c3c 70c0 bf3c
00000130: efd4 3c3c dbc2 753d 134e 553b 118d 913c
00000140: ce69 3c3c 3ba6 caba e3d8 38bb 5dde 0cba
00000150: 5912 2eba 27c7 593c 6874 99ba 7c7a 383c
00000160: 7ab1 3a3c 7c4b 3e3c 6e8a 34ba 23c7 5b3c
00000170: 2d97 3d3c 6d47 2dba 55f8 383c 133e 75bb
00000180: 7320 23ba db18 383c 6bbb 073c 7b0a 3a3c
00000190: a8ef 363c bbbd cbba e98f b8bb 6a48 3c3c
000001a0: da23 4e3d eb29 3a3c 84c2 5b3c 19a7 533c
000001b0: 1de5 3a3c d1db 7eb9 ce34 89b9 42b1 3a3c
000001c0: c5a5 3b3c 6d25 98ba 87ee 8bba 622e 883c
000001d0: ed47 3c3c fd20 8b3c 1bdf 11ba b46a 3a3c
000001e0: 49fd 31ba 9515 3d3c 4333 603c 95ec e43c
000001f0: 0238 77b9 8306 3b3c 55a2 c8ba 6682 3c3c
00000200: ca95 5ab9 8a97 abb9 7b92 4c3d aa1e 65ba
00000210: e4a8 693c d94d a9ba 1bae 19ba 199b 3c3c
00000220: 1101 3b3c af2d 3d3c 6e5f 3b3c a81e 3d3c
00000230: 6d7c 383c 4e74 f1bb ee4c 9aba 5685 413b
00000240: e3ab 0c3d 1bae 8a3c 7c30 393c b20a 3a3c
00000250: 5c7c 3b3c 7bb5 c13c b44e 95ba 28de 65ba
00000260: 1f2d 56bb d7a6 0c3b 0c6e 383c 0000 0000
00000270: 78f0 373c 0000 0000 47d5 373c 4df6 3a3c
00000280: 5b97 7bba 1155 25ba b98d 383c 3f06 2b3d
00000290: 27aa 633b 0870 27bb 9313 59bb 3100 3c3c
000002a0: 1a27 3a3c f9e3 3e3c d5ad 88ba 599c 98bb
000002b0: c2c3 6ab9 0000 0000 d794 3cba 3f4c 353c
000002c0: 0f40 3a3c 7614 99ba 99ca 3d3c 9b04 3d3c
000002d0: cf7e 5f3c e67a 97ba ba01 3c3c faeb c8ba
000002e0: be4f 393c f7a6 393c 9795 843b 2e68 10ba
000002f0: 99aa 3a3c c211 923c 8542 7ebb ffce bd3c
00000300: e045 3b3c 765f 3b3c 3b73 383c ed56 05ba
00000310: ecc8 fb3b 416a 3c3c 4441 3a3c dd54 3d3c
00000320: 6b39 3a3c 509e f63b 574a 84ba 0000 0000
00000330: ca17 3d3c 36c6 c9b7 0104 32b9 e0d9 24bb
00000340: f4a2 27ba d1d0 383c 5f96 3f3c 4781 393c
00000350: f88d f7bb 7ec9 3d3c 0f5f 603b 0c18 c13c
00000360: 2296 103b bcdd 02ba 0000 0000 3568 cbba
00000370: daae 373c f651 98ba 8376 ff3b b2f2 61b9
00000380: 7fef 913c 5dff 3b3c c903 31ba aed6 3d3c
00000390: fc34 3a3c 4641 3b3c 3b3c 3e3c 8951 3a3c
000003a0: c65e 3d3c 17aa 653d 6811 3a3c f405 d5ba
000003b0: 2227 3f3c df72 3f3c 33af 3a3c ebac 3a3c
000003c0: 23e8 393c 022f 98ba 64fa 2bbb aab5 4d3d
000003d0: 6d1a 383c 4d29 383c 8757 3d3c 1b35 3d3c
000003e0: 3623 17ba 0000 0000 9b7d e73c 7090 3fba
000003f0: 1d36 75b9 853c f2bb 9c05 03ba a1ba 3b3c
-0.0011689835 0.0076577575 0.022862185 -0.0027886285 0.011472385 -0.0007070896 0.008275186 0.011480684
-0.0028953196 0.011328668 0.011481543 0.011426624 -0.00022759462 0.011377228 0.0114362575 -0.0006428881
0.004120225 0.0128144985 -0.0007179059 -0.00026046074 0.011436038 0.011346059 0.011299944 0.017847179
-0.0008774671 0.06896688 0.0075952224 -0.0008251059 0.011368943 0.0 0.011418439 -0.00061438314
0.0 0.011441287 0.011637501 0.007933517 -0.0007027242 -0.00028755033 0.011122603 0.011426761
-0.00069930096 0.008937272 0.011394546 -0.004790581 -0.0011691969 -0.00058354693 0.011205953 0.011116336
0.011534641 0.023723595 -0.0011893857 -0.0011686073 0.023953589 -0.00030809426 -0.023791853 0.011667471
0.01131692 0.011468405 -0.0033112478 -0.00051847193 -0.0012403753 -0.0006092996 0.0 0.011449106
-0.0068630106 0.0076685073 -0.00056527887 0.049912572 0.011457388 0.011404669 0.011435391 0.011519546
-0.0012375093 -0.00016931641 0.013462447 0.023407191 0.011525377 0.06000028 0.0032547757 0.017767461
0.011499835 -0.0015460917 -0.0028205446 -0.0005373711 -0.0006640307 0.0132921105 -0.0011707665 0.011259671
0.011394853 0.011614677 -0.0006887083 0.013414177 0.011571688 -0.00066100695 0.011289676 -0.0037421032
-0.0006222792 0.011236395 0.00828443 0.011355038 0.011165537 -0.0015544215 -0.00563239 0.011491874
0.05032716 0.011362533 0.013413075 0.012918257 0.011407164 -0.00024305216 -0.0002617002 0.011394801
0.011453097 -0.0011607833 -0.0010675945 0.01662368 0.011491758 0.016983503 -0.00055645563 0.011377979
-0.00067897566 0.01154079 0.013684097 0.027944842 -0.0002357662 0.011415127 -0.0015307168 0.011505699
-0.00020845901 -0.00032728567 0.049944382 -0.0008740226 0.014261458 -0.0012916877 -0.00058624306 0.011511588
0.0114138285 0.011546536 0.011436326 0.011542954 0.011260134 -0.007368601 -0.0011772194 0.0029528937
0.03434361 0.016928723 0.0113030635 0.011355089 0.011443224 0.023646107 -0.0011391253 -0.00087687606
-0.0032680703 0.002146175 0.011256706 0.0 0.011226766 0.0 0.011220283 0.011411262
-0.0009597444 -0.00063069264 0.011264258 0.041754004 0.003473887 -0.0025548954 -0.003312324 0.011474655
0.011361862 0.011651033 -0.0010427783 -0.00465731 -0.00022388904 0.0 -0.000719381 0.011065542
0.011367812 -0.0011679071 0.011583948 0.011536743 0.013641073 -0.0011557012 0.011475021 -0.0015329116
0.011310516 0.011331311 0.004046153 -0.0005508688 0.011393213 0.017830733 -0.0038796973 0.023169992
0.011430234 0.011436334 0.011257942 -0.00050865003 0.007683864 0.011499942 0.0113681 0.0115558775
0.011366229 0.0075261965 -0.0010092956 0.0 0.011541316 -2.4053366e-05 -0.00016976894 -0.0025154278
-0.00063948263 0.011280254 0.011693566 0.011322326 -0.007554766 0.011583684 0.0034236347 0.023571037
0.0022062142 -0.00049921474 0.0 -0.0015518727 0.011211121 -0.0011621106 0.00779611 -0.00021548083
0.017814396 0.011474458 -0.0006752578 0.011586828 0.0113651715 0.011429137 0.01161104 0.011371979
0.01155824 0.056070413 0.011356689 -0.0016252385 0.011667045 0.011685102 0.01139431 0.011393766
0.01134685 -0.0011610689 -0.0026241774 0.050222076 0.011236769 0.011240316 0.011556513 0.011548306
-0.000576544 0.0 0.028258136 -0.00073075946 -0.0002338518 -0.0073924684 -0.0004998089 0.01145807

fc2.weight f4 [600, 300]
00000000: c5e6 a038 293d ccbb 86e7 a03d 9bbc 113b
00000010: 00e5 edbb e81b a338 0ced d3bb 5c98 f1bb
00000020: c528 42bb bfb1 edbb 497d eebb 758c f4bb
00000030: ab8d 0fb9 0666 ecbb a34e f3bb f58c 8239
00000040: be51 aabb c496 863d 35aa 0e37 5b21 9137
00000050: a3f6 f6bb eadd e9bb 745d edbb cfd8 943d
00000060: a8fc 91b7 9d48 633d 1ef5 d3bb fc83 04b9
00000070: 8de0 eabb e87c 5638 46e6 edbb 8893 4d38
00000080: 37aa d437 a674 ecbb 40b8 f4bb 7d20 d1bb
00000090: d088 2f37 895c 15b8 ac16 ebbb 7499 f0bb
000000a0: 930e 23b7 cf43 dbbb 8545 f4bb 3178 0abb
000000b0: 4365 9a38 735b eeb7 da22 e7bb b93e eebb
000000c0: 1e89 eebb 4b48 a13d d69a ec37 9b40 27b9
000000d0: d223 b63d a84b bab7 b941 073d 90ad f5bb
000000e0: 836d f4bb d80a e9bb d6cc 33bb 9555 2339
000000f0: 7d7b 1b39 bb4a 2038 6694 52b7 baf8 eabb
00000100: a3ef 83bb d504 d1bb c9d0 bc38 8b74 0b3d
00000110: 2800 f0bb 2e5a f3bb e451 f3bb 5fc6 f0bb
00000120: b0da 6eb8 9a32 aa38 b589 d63d 9b94 7d3d
00000130: 1b97 fcbb 4198 a43c a73c a4bb 5a49 953d
00000140: 78a3 edbb 853d 093a 7a33 213b 1f3c 4b38
00000150: cbdb 8fb8 5b79 d43d b9c5 7137 0ba9 eabb
00000160: da06 f4bb d01b f3bb 4c9e 2a39 9b24 d53d
00000170: 11a5 edbb 61f1 c838 a9a8 edbb 062d 2abb
00000180: 7b24 09b8 f37b f1bb 82df ddbb 7707 f0bb
00000190: a8bc eabb bd70 c039 69af 0ebb eb16 f5bb
000001a0: 0bc7 043d 2621 f1bb 0cf0 d43d 8794 803d
000001b0: fdb4 efbb 694b 46b8 6b75 92b8 8825 e9bb
000001c0: 6edb eebb bf58 5eb8 62fe 893a 5d66 e13d
000001d0: 9f46 e8bb 3ccd e13d 407f e738 0908 f0bb
000001e0: 09af a0b7 7caa f4bb d311 d73d a100 733d
000001f0: 9e72 1ab8 8a1a f0bb bfd0 1339 261e f4bb
00000200: cd40 29b9 f656 41b9 763b 063d e4b5 6938
00000210: 699f 753d 8529 1839 8d92 82b8 a31a f1bb
00000220: df0f f3bb 3a6e f4bb 6bd8 ebbb 35c2 f1bb
00000230: 9892 ecbb 4740 b2bb 465f 85b8 d830 a8bb
00000240: 8fa9 763d d26f e13d 1283 ecbb 267f e5bb
00000250: 5cb4 ecbb 9606 a13d 9b97 b9b8 173e 2d36
00000260: 4de7 3bbb 845a 99bb 723d ecbb 714e 5d38
00000270: f057 f0bb 7f1b 09b9 ea0c eebb af06 eebb
00000280: 0e5b 1739 009e 3539 333c ecbb ea70 973d
00000290: 3856 aabb 1b7e 253b 2ee1 36bb 1a52 efbb
000002a0: ce33 e9bb ff1e f6bb f6b2 cfb8 baf0 17bb
000002b0: 4ea7 7839 858b 3739 744a 7e37 cb51 ebbb
000002c0: c6c7 f0bb 684c bf36 516e f4bb 29c3 f5bb
000002d0: 210d d83d e7ff 983a 0f8f efbb c179 11b8
000002e0: d4a2 efbb a6d8 eebb b56b aebb 808a edb6
000002f0: 97a7 eebb 33d4 943d 7c94 25bb 0366 a63d
00000300: f9af f3bb 48cd edbb ea3a eebb d7e6 e638
00000310: 18b3 d1bb 1022 f2bb 4b0b eebb 8185 f0bb
00000320: acb1 edbb 41a1 cbbb f394 f3b8 32ce 6938
00000330: 422a e8bb e487 e138 e1af 9338 ca68 193b
00000340: fcde b738 8302 ebbb 5486 f6bb 9b08 eabb
00000350: 096a b3bb b2cb f1bb 4db7 a1bb 29a2 a53d
00000360: 4577 98bb e0ad b337 be54 de37 2c74 a1ba
00000370: 72ce e7bb d0e3 3038 d83f d6bb 184c 0eb9
00000380: 6ede 943d 09f3 f2bb 9fbd 46b7 92ba f6bb
00000390: d11a efbb d768 edbb 39f0 f3bb 191c e8bb
000003a0: 4c0d f3bb 31e2 8e3d 279c f3bb 00fe a03a
000003b0: 7bb5 fabb 0967 f5bb 1d78 edbb ddb4 e9bb
000003c0: 5c50 ecbb 3538 e338 6a9e 1f3b a946 053d
000003d0: f8c8 efbb c2ba ecbb c86e f1bb 5a26 f7bb
000003e0: 4de5 be38 fb40 7cb8 df3b 723d b72c bf37
000003f0: 53ee 9a38 9083 bebb b77f 4338 6f7c efbb
7.672379e-05 -0.006232877 0.078566596 0.0022237662 -0.007259965 7.7776436e-05 -0.006467467 -0.007372899
-0.0029626351 -0.007253855 -0.0072781187 -0.007463033 -0.00013690318 -0.0072143106 -0.0074251457 0.00024900553
-0.0051977327 0.06571725 8.503489e-06 1.730088e-05 -0.0075367256 -0.00713705 -0.0072438065 0.072679155
-1.7403e-05 0.05548917 -0.006468429 -0.00012637669 -0.007167882 5.1137904e-05 -0.0072601167 4.9013208e-05
2.5351632e-05 -0.007216054 -0.0074682534 -0.0063820467 1.0462667e-05 -3.561055e-05 -0.0071743336 -0.007342512
-9.71895e-06 -0.006691433 -0.0074545764 -0.0021128769 7.362154e-05 -2.8414395e-05 -0.007053715 -0.0072706607
-0.0072795292 0.07875117 2.8205493e-05 -0.00015950428 0.08893551 -2.2208158e-05 0.033021662 -0.007497497
-0.007459344 -0.0071118884 -0.0027435324 0.00015576773 0.00014827955 3.821657e-05 -1.2551527e-05 -0.007170764
-0.0040263697 -0.00637875 9.003428e-05 0.03404669 -0.0073242374 -0.0074265217 -0.0074255336 -0.0073478664
-5.694729e-05 8.115657e-05 0.10475484 0.0619093 -0.007708443 0.020092132 -0.005012113 0.07289381
-0.007252153 0.00052353024 0.0024597333 4.8454964e-05 -6.859711e-05 0.10374709 1.4410755e-05 -0.007161265
-0.007447106 -0.007419087 0.00016271434 0.104073726 -0.0072523435 9.5817035e-05 -0.007252772 -0.0025966777
-3.269732e-05 -0.007369512 -0.006771029 -0.0073251086 -0.007163603 0.0003670509 -0.0021772033 -0.0074795387
0.032416385 -0.007358688 0.10397348 0.06278329 -0.0073152767 -4.727711e-05 -6.983693e-05 -0.00711507
-0.0072893417 -5.3011576e-05 0.0010528082 0.11005852 -0.007088497 0.110254735 0.000110386405 -0.0073251766
-1.9154993e-05 -0.0074666124 0.105014466 0.05932677 -3.6823207e-05 -0.0073273825 0.00014096776 -0.007449883
-0.00016141236 -0.0001843831 0.03277155 5.5720928e-05 0.05996648 0.00014511317 -6.22618e-05 -0.0073579117
-0.0074176635 -0.007459429 -0.00719743 -0.0073778876 -0.007219624 -0.0054397914 -6.35968e-05 -0.0051327758
0.060220297 0.11007656 -0.0072177732 -0.0070036827 -0.007223649 0.07862584 -8.849726e-05 2.581515e-06
-0.0028671802 -0.0046799798 -0.0072094733 5.276356e-05 -0.0073347017 -0.00013075581 -0.007264723 -0.0072639803
0.00014434403 0.00017320365 -0.0072093247 0.073945835 -0.0051982664 0.0025252167 -0.0027905214 -0.0073034884
-0.0071167713 -0.0075110192 -9.903863e-05 -0.0023184256 0.00023713449 0.00017504215 1.5156915e-05 -0.0071813813
-0.0073480336 5.7011384e-06 -0.00745944 -0.0075000715 0.10549379 0.0011672945 -0.007310755 -3.4684086e-05
-0.007313112 -0.00728901 -0.0053228983 -7.079274e-06 -0.007283162 0.07267036 -0.0025265506 0.08124926
-0.007436749 -0.0072571374 -0.0072702067 0.00011010252 -0.0063995235 -0.0073893145 -0.00726453 -0.0073401337
-0.007253846 -0.0062142913 -0.00011614887 5.5743563e-05 -0.0070851156 0.00010754148 7.042266e-05 0.0023408406
8.767654e-05 -0.0071719303 -0.0075233374 -0.007142139 -0.005475287 -0.0073790187 -0.0049351812 0.0808757
-0.00465289 2.141943e-05 2.6503923e-05 -0.0012317947 -0.0070741707 4.2173837e-05 -0.0065383725 -0.00013570522
0.072689876 -0.007414226 -1.1845869e-05 -0.007529565 -0.007296898 -0.007245164 -0.0074444083 -0.0070834276
-0.0074173566 0.06976736 -0.0074343863 0.0012282729 -0.0076510287 -0.0074890894 -0.0072469846 -0.0071321563
-0.007211728 0.00010834673 0.0024355897 0.03253809 -0.0073176585 -0.0072244117 -0.0073679425 -0.0075424137
9.1026166e-05 -6.0142e-05 0.05913913 2.2789796e-05 7.3876836e-05 -0.0058140233 4.6610567e-05 -0.007308535

fc2.bias f4 [600]
00000000: 0f3c 3abc 0000 0000 a1fd e9bb d67b 15bb
00000010: 0000 0000 c98f 653c 626e ecbc bd54 31bb
00000020: fd84 4dbb 0000 0000 0000 0000 cef9 0dba
00000030: f969 36bb 6e5c 12ba 89af 14ba 93b1 18ba
00000040: ac59 05ba 2cd1 043d db6d e93c ff3c cfba
00000050: 5068 4abb b34a 973b 9be2 a73b 7ec9 53ba
00000060: a0df 18bb 030c 2a3c 2245 0dbb c5b0 0abb
00000070: d917 16ba 6bd7 f4ba b542 21bb 0000 0000
00000080: 6d68 d33c e327 edbc 0000 0000 267c c1bc
00000090: 5a52 0ebb a69b 893d 9fda 42bb efc1 8c3b
000000a0: 81d7 ab3b 0000 0000 c13f 0cba 4de0 3b3c
000000b0: 4079 08ba 082f dfba cd5d 18ba 7825 a53b
000000c0: 8467 333c 1e92 16ba abd2 2ebb 2622 6e3b
000000d0: 16aa 983b 4321 67bb 0000 0000 930f 06ba
000000e0: 9f21 9c3b 135d 9ebb 9bc5 66bc 9c56 e3bc
000000f0: 5a1a dcbc c2da 5abb 9d7e 08ba 0000 0000
00000100: 4380 ccbc d8bf 23bb 0000 0000 e76c 15ba
00000110: 2dbe 8c3d b049 9e3b a1dc 17ba 0000 0000
00000120: ef26 1fbb 2e9b 013d d5eb 29bb dd45 cdbc
00000130: e491 01ba 846d 01ba eb9b 033d 0000 0000
00000140: ffa2 e0ba 9835 ccba c87a 663c 0000 0000
00000150: 0000 0000 bcd9 05ba 66ec 16ba 336a d9b9
00000160: 970c ddba c29f 1bbb 5d0c 7f3c 7479 17ba
00000170: 0000 0000 05e2 73bb 96b4 863c de6f 41bc
00000180: b806 14ba 8c46 3ebb b4b9 7c3c 0000 0000
00000190: 8ac5 06bb 1dc4 19ba d1ab 05ba 989f 4fbb
000001a0: 321d 8d3b cee0 243c 9896 093b 2098 d53c
000001b0: 1b61 06ba abf3 07ba 89bc 11ba e564 06ba
000001c0: 91e3 21ba 6ece 08ba 6c50 09ba 11e8 ea3c
000001d0: a45e 7f3c ea98 17ba 4843 2ebb 4c54 47ba
000001e0: affa 183d ba2d be3d 0000 0000 c00a 033d
000001f0: 659d 7e3c 5cf6 edbc e77a e5ba efdf 313c
00000200: 2c4e 48bb 7d63 ecba 717b 8f3c 8bba 11bb
00000210: b9f2 7c3c 8c84 273c eeb1 22ba a85e 0aba
00000220: 32fa 05ba 2fa8 33bb 1b0c 10ba 0000 0000
00000230: c5f9 f7ba 2bca 14bb 33cf 0dba 80a7 14ba
00000240: 651b a33b 3a5f bebc b7b7 0aba 457f 913b
00000250: 3a11 9d3b cb37 08ba 6806 253b 22e5 78bb
00000260: 0000 0000 8f5f 40bb d999 2abb 0000 0000
00000270: 5854 273c c567 15ba 0358 043d d419 8ebb
00000280: 0000 0000 5a19 9a3b 3d54 0bba 4e3f ecbc
00000290: 295d 263c 4bc7 30bb b559 4ebb 217f 9b3b
000002a0: 486b e0bc 0000 0000 9589 45bb 0000 0000
000002b0: 00b2 e3bc 3e03 f0b9 f79e 1bbb 2e6f 14ba
000002c0: 676b f5bb e3ec 9c3d c2a7 97b9 98be beba
000002d0: 0000 0000 4757 bcbc 4d0a 22bb b822 c23c
000002e0: faf2 43bb 2cdb 06ba 446f 043d de00 2bbb
000002f0: ba17 48bb df8b 17ba 0337 a23b 0000 0000
00000300: 8aa8 9cb9 6dd0 f4ba 3be9 00bb 0257 f2b9
00000310: aed6 bebc c149 15ba 187f 0fba b307 4bbb
00000320: 7fc1 17ba dc72 20bb 5499 973b 8096 ccbc
00000330: 7510 17ba 8120 a93d 1669 033d c3be 05bb
00000340: 7594 943d b870 0bba 498c 3cbc 51a5 253c
00000350: 7d90 e6bc 295b 273c 0000 0000 b9f2 8abb
00000360: 4bcb 9cba bff4 ea3c b96e 7a3c 7a16 e8ba
00000370: 95cc 38bb 7df9 aebb 4091 52bb b948 ebbc
00000380: bd1a a53b 0000 0000 0000 0000 014a 02bb
00000390: 1917 17bb 5e6b 4fbb b967 11ba f1ec a93a
000003a0: 8e02 a43b e9d7 53bb eb8d a73b 8082 c3bc
000003b0: 25dc 9cba 6939 09ba cda2 3ebb e519 45bb
000003c0: c67c 093b 8288 9c3b c0f1 06ba 5d44 3fbb
000003d0: d55b 4ebb 2a3c 31bb 68d4 fdbb b3f9 14ba
000003e0: 010b cfba 809e f63c 51af 723c 7af8 04ba
000003f0: 95c5 0bbb 6dd9 16bb 0000 0000 43c0 e33c
-0.011366858 0.0 -0.0071408306 -0.0022809408 0.0 0.014011332 -0.028861228 -0.0027058565
-0.0031359785 0.0 0.0 -0.0005415947 -0.002783416 -0.0005583231 -0.0005671909 -0.00058248005
-0.00050869095 0.032426044 0.028494766 -0.0015811025 -0.003088493 0.004617059 0.005123449 -0.0008079036
-0.002332665 0.01037884 -0.00215561 -0.0021162492 -0.00057255995 -0.0018679922 -0.002460641 0.0
0.02580663 -0.028949684 0.0 -0.023618769 -0.0021716566 0.06719141 -0.002973236 0.0042955796
0.005244196 0.0 -0.0005350076 0.011467052 -0.0005206056 -0.0017027566 -0.0005812317 0.005039867
0.010949973 -0.0005743819 -0.002667586 0.0036336272 0.0046589477 -0.0035267628 0.0 -0.0005114015
0.00476475 -0.0048328727 -0.014085199 -0.02775126 -0.026868034 -0.003339455 -0.0005206855 0.0
-0.024963504 -0.0024986174 0.0 -0.00057001266 0.06872211 0.0048305616 -0.0005793069 0.0
-0.002428468 0.03164213 -0.002592792 -0.025057727 -0.0004942699 -0.00049372786 0.032131117 0.0
-0.001713842 -0.0015579937 0.014067359 0.0 0.0 -0.00051059923 -0.0005757272 -0.0004146859
-0.0016864714 -0.0023746346 0.0155669125 -0.0005778291 0.0 -0.0037213576 0.016443532 -0.011806456
-0.0005646753 -0.0029033748 0.015425134 0.0 -0.002056452 -0.000586571 -0.000509915 -0.0031680819
0.004306459 0.010063363 0.0020994302 0.026073515 -0.0005126164 -0.00051861507 -0.0005559405 -0.0005126729
-0.00061755726 -0.00052187487 -0.0005238119 0.028675111 0.015586529 -0.0005782979 -0.0026590396 -0.0007603809
0.037348446 0.092860654 0.0 0.031992674 0.0155404555 -0.029048137 -0.0017507941 0.010856613
-0.0030564172 -0.0018035021 0.017514916 -0.0022236432 0.015438729 0.010224473 -0.0006206323 -0.0005278387
-0.00051108294 -0.0027413478 -0.0005494968 0.0 -0.0018919042 -0.002270351 -0.0005409598 -0.00056707114
0.004977631 -0.023238767 -0.0005291658 0.0044402205 0.0047933133 -0.0005196302 0.002518082 -0.003797837
0.0 -0.0029353832 -0.0026031642 0.0 0.01021298 -0.0005699362 0.032310497 -0.004336575
0.0 0.004702729 -0.00053149817 -0.02883878 0.010154047 -0.0026974257 -0.0031486575 0.0047453796
-0.027394906 0.0 -0.003014182 0.0 -0.027794838 -0.00045778783 -0.0023745873 -0.0005662319
-0.00748961 0.0766237 -0.00028925954 -0.0014552651 0.0 -0.022990836 -0.0024725378 0.023698196
-0.0029899464 -0.00051443535 0.032332674 -0.0026093046 -0.003053172 -0.0005781035 0.0049504056 0.0
-0.0002988021 -0.0018677838 -0.0019670266 -0.00046222663 -0.023295727 -0.0005694889 -0.00054739555 -0.003097993
-0.0005789026 -0.0024482524 0.0046264324 -0.024974108 -0.0005762645 0.08258153 0.03208264 -0.0020407892
0.072548784 -0.00053192256 -0.011508056 0.010110215 -0.02814507 0.010214605 0.0 -0.0042403606
-0.0011962441 0.028681157 0.015285187 -0.0017706894 -0.0028198112 -0.0053398 -0.0032130033 -0.0287212
0.005038588 0.0 0.0 -0.0019880536 -0.0023054539 -0.003164969 -0.0005546767 0.0012964291
0.0050051874 -0.0032324737 0.0051133535 -0.023865938 -0.0011967464 -0.000523469 -0.0029088736 -0.0030075249
0.0020978912 0.004777015 -0.0005147718 -0.0029185035 -0.0031487842 -0.0027043917 -0.007746268 -0.000568296
-0.0015796126 0.030104876 0.0148123065 -0.0005072426 -0.0021327485 -0.002301778 0.0 0.027801638

steering.weight f4 [1, 600]
00000000: 65ae a6bc 22b4 77b9 d873 9e3b 75a2 deba
00000010: 84b6 2eb7 5da8 9a3b e3ea 02bc a682 49bb
00000020: 5eae 4a3b f6a2 0ab9 2fe8 91b8 d4ab f138
00000030: 99f5 02bb fd39 3039 3335 28b8 53ce 51b8
00000040: 5549 09b9 1ee4 363c 27d0 203c 0afd 6eba
00000050: 873f 34bb ffd3 f73b e762 c93b 727a 223a
00000060: ef26 423c 4a26 7f3b b5b6 2fbb 3e0e c9ba
00000070: d68a ce38 343e c8ba 0fd0 19bb 8bc4 5638
00000080: 66f1 133c ac3a 3dbc e52e 3938 6a21 63bc
00000090: 5f6b d9ba 24a1 a53c 9bb3 3f3b fd2d f23b
000000a0: e991 aa3b 55aa 8e37 2b28 1239 cc06 80bc
000000b0: 6f97 4cb8 4b58 d7ba 51aa 0539 d950 cc3b
000000c0: f470 7e3b d4c1 0439 618f 01bb b577 08bb
000000d0: 2c95 c53b a92d 3dbb 4c2c 8db8 dfc6 bd38
000000e0: b576 c63b 739f c4b9 3cba acbc b65b 3cbc
000000f0: 4377 3cbc a5a4 28bb afa3 1139 890c e136
00000100: c716 54bc 7508 1dbb 97dc fbb8 1fe4 8938
00000110: 404f d33c 40f7 c43b 2e9c 3b39 6161 9fb8
00000120: 4693 1cbb 3287 423c 2120 153b 2b07 973c
00000130: f5fa f438 7a1a a238 e742 403c 3afe edb8
00000140: 7bbd d1ba 3bad 28bb 66bb 9b3b 8c63 a238
00000150: cf51 ecb8 05cf 1db9 2aea 5939 0d43 ef38
00000160: a328 c6ba 549c 14bb 47e9 b63b 9bb8 dbb9
00000170: 8ca4 9538 d891 833b 0dc7 ccbc efd5 b8bc
00000180: 07d4 16b8 6a5b 16bb 0aec b23b 9d17 1938
00000190: 5227 c7ba 6765 1439 b0a5 ec38 9923 423b
000001a0: f080 ef3b 00ec 7d3b 2ec0 da3d 3112 143c
000001b0: 1bd9 a538 724d deb8 bf77 6e38 7e8f 6138
000001c0: 5fe3 18ba 6eb0 9738 18bc a6b7 1926 d1bc
000001d0: 0e3c b13b 02ba c0b6 7053 81bc 3225 263a
000001e0: e3c1 e7bc 6b43 cebd e75c c637 bee6 403c
000001f0: 71ff b33b f2a5 edbb 14af d5ba a6a4 803b
00000200: 5bfd 1abb bd4d e6ba 1e36 d5bc 069b e4ba
00000210: 7110 b33b e5ca 7d3b dd3c 12ba fb2f 7438
00000220: 36a0 16b8 1b02 3abb 9052 94b4 563e 27b9
00000230: 2525 f5ba 2a86 12bb c831 15b8 41b4 27b8
00000240: ff08 c73b f37d 66bc 759b 5939 ca45 c63b
00000250: 303d ed3b d0cc bbb6 7c78 a43b 9e9f a0ba
00000260: 32ca c638 2366 463b 4f17 49bb f269 1939
00000270: 2a01 7e3b 19a1 0e39 23cc 353c 00e9 0ebb
00000280: eb09 b536 489b c63b 9d60 e538 fe73 ecbb
00000290: c0e8 7c3b e696 08bb d33b 48bb 1743 c63b
000002a0: 9316 933c fdf3 88b8 d837 20bb 1b17 4cb6
000002b0: a71e 3bbc 4b27 89b8 1990 17bb 63a2 b338
000002c0: 888a 8d3d eb2d 103d 63dc a936 9109 923a
000002d0: 8262 dfb7 8c36 6bbc e6ed 21bb da8a 0a3c
000002e0: 3e51 1bbb 39a1 06b8 6470 3f3c d0a3 5e3c
000002f0: 9d62 1cbb 02d2 3e39 5d62 c93b 0cfe c4b7
00000300: d828 dc38 4905 01bb 2eec c7ba 8992 4438
00000310: 067c 69bc 6953 71b7 12b1 0cb5 ec88 1ebb
00000320: 4c1c 5e39 fea2 e1ba 0627 c23b 5a15 5cbc
00000330: b9af 3239 ba13 683d 2be9 403c 78f4 c4ba
00000340: 527e ed3c 78b0 1c38 5b28 a2bc 0b9f 7e3b
00000350: b1c2 3abc 1ec6 7d3b 6838 51b7 a6ab 98b9
00000360: 66d2 8c3a 64b2 203c c413 ae3b 9212 daba
00000370: 82f5 faba b8e6 39ba 2007 0abc a4b4 00bc
00000380: 7e02 d13b 92f7 a937 d51f fe38 9194 00bb
00000390: a298 c7ba 992e 11bb 6978 1a38 bb06 b0bb
000003a0: 8433 d43b c050 1cba 216f ce3b 4194 5dbc
000003b0: fd67 bd38 c655 1138 7e95 3a3b 5aac 1bbb
000003c0: 239a d43a f0a3 c93b 84a2 1bb8 16f2 313b
000003d0: afbf 47bb b854 2abb 09c1 33ba ce86 83b8
000003e0: 5cd7 c9ba 5cdc ac3e f849 a8bc 3508 d9b8
000003f0: e231 00bb 0b8c 94ba 65e6 d6b8 a74d 1d3c
-0.02034683 -0.0002362286 0.004835587 -0.0016985672 -1.0413703e-05 0.0047197775 -0.007990572 -0.0030748039
0.0030926685 -0.00013221413 -6.957386e-05 0.00011523781 -0.0019982813 0.0001680627 -4.0103867e-05 -5.0021637e-05
-0.00013092656 0.011162786 0.009815252 -0.0009116685 -0.0027503686 0.0075631137 0.0061458233 0.00061980553
0.011850103 0.0038932734 -0.0026811783 -0.0015339328 9.848706e-05 -0.0015277327 -0.002346996 5.120462e-05
0.009029722 -0.011549633 4.415111e-05 -0.013862947 -0.0016587785 0.02021844 0.002925134 0.007390736
0.005205382 1.7007036e-05 0.00013938609 -0.015628241 -4.8778424e-05 -0.0016429512 0.00012747316 0.0062352237
0.003882465 0.00012660708 -0.0019769298 -0.0020823304 0.0060297456 -0.0028866327 -6.731655e-05 9.049265e-05
0.0060566314 -0.00037502832 -0.021084897 -0.011496475 -0.011503044 -0.0025732901 0.00013889254 6.706982e-06
-0.012944884 -0.002396134 -0.00012009701 6.57516e-05 0.025794625 0.00601092 0.00017891891 -7.599849e-05
-0.0023891493 0.011873053 0.0022754746 0.018436035 0.00011681571 7.7296936e-05 0.011734701 -0.00011348394
-0.0016001904 -0.002573802 0.0047525642 7.743304e-05 -0.00011268595 -0.00015049808 0.00020781966 0.00011408897
-0.0015118312 -0.0022676187 0.005582008 -0.00041908477 7.135523e-05 0.0040151887 -0.024997259 -0.022562949
-3.5960253e-05 -0.002294267 0.005460267 3.6500034e-05 -0.0015194213 0.00014152155 0.000112842186 0.0029623269
0.0073090717 0.0038745403 0.106811866 0.00903754 7.908252e-05 -0.0001060021 5.6855144e-05 5.3777818e-05
-0.0005832221 7.233104e-05 -1.987633e-05 -0.025530862 0.0054087704 -5.7437e-06 -0.015786856 0.000633794
-0.028290695 -0.10071453 2.36467e-05 0.011773763 0.0054930975 -0.0072524482 -0.0016302788 0.0039258776
-0.0023649547 -0.0017570775 -0.026026782 -0.001744122 0.0054646065 0.003872567 -0.00055785273 5.821882e-05
-3.5911995e-05 -0.0028382603 -2.762722e-07 -0.00015949583 -0.0018703087 -0.00223578 -3.557073e-05 -3.9983777e-05
0.0060740705 -0.014068115 0.00020752645 0.0060508 0.00723996 -5.5968776e-06 0.0050192457 -0.0012254601
9.4790375e-05 0.003027328 -0.003068406 0.00014630685 0.0038758018 0.00013602189 0.011096033 -0.002180636
5.395375e-06 0.0060609914 0.000109375665 -0.007215976 0.0038590878 -0.0020841896 -0.0030553236 0.006050478
0.0179551 -6.530432e-05 -0.0024447348 -3.0411818e-06 -0.011420882 -6.539988e-05 -0.002312666 8.565632e-05
0.06911188 0.03520004 5.062249e-06 0.0011141767 -2.6629543e-05 -0.014356267 -0.002470845 0.008455956
-0.0023699547 -3.209824e-05 0.011684511 0.013588861 -0.002386249 0.00018198046 0.006145759 -2.348332e-05
0.00010498025 -0.0019686988 -0.0015252882 4.6866513e-05 -0.014250761 -1.438414e-05 -5.2411735e-07 -0.0024190499
0.00021182111 -0.0017214713 0.005925062 -0.013432825 0.00017040865 0.056659438 0.011774342 -0.0015026471
0.028990898 3.7357648e-05 -0.019794634 0.0038852121 -0.011398957 0.0038722823 -1.2470504e-05 -0.00029119587
0.0010743856 0.009808157 0.005312415 -0.0016637614 -0.0019146653 -0.000709157 -0.00842455 -0.007855568
0.006378471 2.0261654e-05 0.00012117593 -0.0019619802 -0.0015227983 -0.0022153019 3.6828602e-05 -0.005371896
0.0064758677 -0.00059629604 0.0062998687 -0.013524116 9.0315916e-05 3.4650577e-05 0.0028470452 -0.0023753853
0.0016220253 0.006153576 -3.7106234e-05 0.002715235 -0.0030479243 -0.0025990438 -0.00068570726 -6.271676e-05
-0.0015399265 0.3376187 -0.020543084 -0.00010348895 -0.0019560982 -0.001133324 -0.000102472295 0.009601033

acceleration.weight f4 [1, 600]
00000000: 77a0 d03c 538a b737 465e 223b 3d25 e339
00000010: 9627 ce37 760b ff3e fbd8 7a3e b802 473c
00000020: ee76 42bb f45b 9c38 7f9f 4738 d3b4 a737
00000030: 1510 06b9 2ac8 78b6 d280 49b9 827e 6cb9
00000040: 88a9 6bb8 1181 243f b0a6 253f cddd c8bb
00000050: 24bd cd3a c77b 983e 0c92 af3e fd29 e739
00000060: c4cf eb3e a29c e23e 8cc7 853b 5abe af3a
00000070: 8a75 3b38 b1ae c23a 6b07 213b cd32 9e38
00000080: c8cc 233f ef49 6f3e 174d 05b4 51b5 593e
00000090: a330 0eb8 9bb8 3a3e d305 12bb 1b89 953e
000000a0: a5f3 be3e d503 ec37 500d 6138 7669 393d
000000b0: ca33 14b8 d5d0 e93a 95a2 49b8 e9be ae3e
000000c0: 0dc3 e43e 1c99 5e37 7ae8 02b9 50ad f43b
000000d0: b886 b13e 4b96 313b 8e47 42b7 3fd8 cb35
000000e0: f2b2 b13e 899a 7c3b 4c58 d13c 78a2 693e
000000f0: 3789 663e 693a 7bb8 a95d 1eb7 67ff a8b8
00000100: c08c 5e3e 0b24 233b 4ac5 73b8 97b7 9737
00000110: 0d2a 713e 17a0 b13e f2e9 4138 fdf9 fc38
00000120: d8a5 243b bd93 223f c9b4 c238 9d5b 163f
00000130: c11c aab6 aff9 c2b7 b32b 233f dbcf 9a38
00000140: 6889 f03a f9da 4d3b 7028 ff3e 2f96 b6b8
00000150: e8fe aa37 da52 bb37 20db 5e38 12c3 a638
00000160: e778 ce3a 5cc9 1e3b e96f 083f 87f8 7b38
00000170: 8281 06b9 1039 103b 7491 1a3d 3aba eb3c
00000180: b281 5db9 4815 4537 4edb 073f e362 07b8
00000190: 981e b73a 4979 8ab9 9a5a 3938 52e5 b73a
000001a0: 14b8 943e d51b e03e 2248 fc3d 5005 243f
000001b0: 236a 0ab8 6e2e 9636 5c67 41b8 52ce 1db9
000001c0: 5f93 2d3a c500 0938 5ab6 a1b8 8b31 1bbd
000001d0: d268 073f 5ff5 08b9 35d8 9e3c 4ff7 3e3a
000001e0: aa4f 14be f550 7dbd c1d4 4239 b60c 233f
000001f0: 73fd 073f 8c7e 7c3e 01bf c43a 7b1a e63e
00000200: 9fa4 3db8 c1c7 da3a cde9 163d 1ddf c639
00000210: 57e2 073f 776f e03e 4e15 5a3a 7ab1 11b9
00000220: e523 8bb8 c50c 333b 71e4 0c38 1278 40b8
00000230: e413 ef3a dfc6 1b3b c9ef 9c38 9d7e 14b9
00000240: c354 b03e d7de 573e 190e 8438 c250 b23e
00000250: 4343 943e 0816 64b6 43c1 89bd 90d3 c63b
00000260: d1c1 c938 5c76 273b 8ea1 c23b 563c 69b9
00000270: e6a1 e23e a92a 23b8 80a1 243f 797a 103c
00000280: 4e04 c938 294a b13e 9bbe 9638 1b8e 7b3e
00000290: bc83 e13e c43a 0139 388f 47bb 6847 b13e
000002a0: 7f8b 863d 3fbb f4b7 4d92 5438 61f9 3a38
000002b0: 1f6c 6b3e 33bb b337 f04e 153b 2628 fc37
000002c0: 7124 1a3e 2afd bd3e 5a47 4c38 07da 793a
000002d0: d435 05b8 826f 553e 64fa 223b 7c35 203f
000002e0: 5922 7938 b84f 7db7 c758 233f b30b 423d
000002f0: 5c7e 40b9 1e3f 0cb9 9a10 b03e c268 8138
00000300: e0e3 e038 9494 1e3b f536 873a 94be aab8
00000310: f1f8 563e 350c 3e35 ddbd 0bb9 55a0 06b8
00000320: c540 9838 3caa cdb7 3c26 b43e bcf9 5d3e
00000330: abe3 e4b8 845f 32be 9a45 233f 3fdb d63a
00000340: 6066 a03e 85bf 13b9 965f d13c 7524 e13e
00000350: cf1a 6b3e d95f e13e a496 e8b7 dcce ed3b
00000360: 11c6 aa3a 2288 253f c8b8 053f 942b de3a
00000370: 6fd3 87b8 b0d7 d639 01d3 793c 6b6c 7b3e
00000380: 2c1d ad3e 3b6b 9437 4157 7439 c064 053b
00000390: df5a a5b8 5c77 02b8 9bfa 5fb8 f95b f93b
000003a0: 39e6 ab3e 69d8 f23a 32ab ae3e 5965 5b3e
000003b0: f7a7 69b9 637c f6b7 a629 323b c2fb c336
000003c0: 633b 1cbb 9fbf b03e a9f0 99b8 688b 303b
000003d0: 6717 46bb b772 463b debc e23b 80bd dfb8
000003e0: 30bb c03a 8de1 173e cd8d 2a3d f3f5 6c37
000003f0: 3b4f 0d3b 4a7c bb36 9f11 c638 aa05 253f
0.02546714 2.1879712e-05 0.002477543 0.0004332456 2.4575547e-05 0.49813432 0.24496834 0.012146644
-0.0029672938 7.455787e-05 4.759384e-05 1.9992154e-05 -0.00012785227 -3.707139e-06 -0.00019216843 -0.00022553842
-5.6186254e-05 0.6425944 0.6470747 -0.0061299563 0.0015696627 0.29781935 0.34291112 0.00044091037
0.4605695 0.44260126 0.0040826257 0.001340817 4.469374e-05 0.0014853087 0.0024571072 7.5434895e-05
0.63984346 0.23368047 -1.2414635e-07 0.21260573 -3.3900735e-05 0.18234484 -0.0022281304 0.29206166
0.3729526 2.8135177e-05 5.365658e-05 0.04526659 -3.5334182e-05 0.0017838726 -4.807355e-05 0.34130028
0.44680062 1.326788e-05 -0.0001248437 0.0074669495 0.34673095 0.0027097638 -1.1579961e-05 1.5187615e-06
0.34706837 0.0038544259 0.025554799 0.22815883 0.22513281 -5.9897462e-05 -9.439341e-06 -8.058437e-05
0.2173338 0.002489331 -5.8119454e-05 1.8086093e-05 0.23551197 0.3469245 4.6232664e-05 0.0001206286
0.0025123265 0.6350668 9.284315e-05 0.5873354 -5.069742e-06 -2.324287e-05 0.63738555 7.382008e-05
0.0018351497 0.0031411035 0.4983554 -8.70641e-05 2.038428e-05 2.2330718e-05 5.3133e-05 7.9518315e-05
0.0015752584 0.0024228906 0.5329576 6.0074522e-05 -0.00012827481 0.0022006668 0.03773637 0.028775323
-0.00021124518 1.174707e-05 0.5306901 -3.2278604e-05 0.001397091 -0.00026411776 4.4191816e-05 0.0014030135
0.2904669 0.43771234 0.12318446 0.64070606 -3.300061e-05 4.4757535e-06 -4.6111047e-05 -0.00015049547
0.0006621386 3.2664062e-05 -7.711044e-05 -0.037889045 0.5289432 -0.00013061379 0.019390205 0.00072847767
-0.14483514 -0.061844785 0.00018580539 0.6369127 0.5312111 0.24657649 0.0015010537 0.44942078
-4.5214427e-05 0.0016691611 0.036844064 0.00037931735 0.5307974 0.4383504 0.00083192147 -0.00013894393
-6.6347224e-05 0.0027320844 3.3591354e-05 -4.588819e-05 0.0018240181 0.002376966 7.483323e-05 -0.00014161547
0.34439668 0.210811 6.2968764e-05 0.34827238 0.28957567 -3.3987471e-06 -0.06726315 0.0060677007
9.620528e-05 0.0025552725 0.005939669 -0.00022243088 0.44264144 -3.890196e-05 0.6430893 0.008818262
9.585229e-05 0.34626892 7.1880604e-05 0.24565928 0.44045818 0.0001232429 -0.0030450355 0.3462479
0.065695755 -2.917426e-05 5.0680992e-05 4.4578108e-05 0.22990464 2.1425634e-05 0.0022782646 3.0059437e-05
0.15052964 0.3710721 4.870384e-05 0.0009531085 -3.1759802e-05 0.20843318 0.0024868483 0.6258161
5.9398215e-05 -1.5098536e-05 0.6380734 0.04737444 -0.0001835762 -0.00013374953 0.34387666 6.170712e-05
0.000107235974 0.0024197446 0.0010316061 -8.1417296e-05 0.20993401 7.079828e-07 -0.00013326803 -3.209741e-05
7.259989e-05 -2.4517176e-05 0.3518542 0.21677297 -0.00010914294 -0.17419249 0.6377808 0.0016392245
0.31328106 -0.00014090359 0.025558274 0.43973127 0.22959445 0.44018438 -2.7726703e-05 0.0072573256
0.0013028999 0.6466085 0.5223508 0.0016950243 -6.476684e-05 0.0004097796 0.015248061 0.24553077
0.3381132 1.7692908e-05 0.00023302158 0.002035424 -7.884739e-05 -3.1105577e-05 -5.3400738e-05 0.007609841
0.33574083 0.001852763 0.34114987 0.2142538 -0.00022283183 -2.9383407e-05 0.002718547 5.8407613e-06
-0.0023839108 0.34521195 -7.340435e-05 0.0026938561 -0.0030226351 0.0030280778 0.0069194874 -0.00010668766
0.0014704224 0.14832135 0.041639138 1.4123961e-05 0.0021562118 5.5875034e-06 9.444658e-05 0.6446177

brake.weight f4 [1, 600]
00000000: 562d 16be e341 35b9 2cf1 8bba 584c 55ba
00000010: 06dd 3fb9 0cc4 c5be 9b42 69be 137a 37bc
00000020: 0ffd 453b b91d a1b6 63ed 3538 075b 4d37
00000030: eee9 d437 ed49 3638 cca8 afb7 a1dc f3b8
00000040: 7198 01b9 5c64 0cbf b636 05bf 620f 6abb
00000050: 4552 3abb df2b 8dbe bc45 9cbe 3bfa f9b9
00000060: 3af3 05bf 1668 b6be 7ce2 05bb b742 cfba
00000070: 6384 06b9 8a70 c2ba 8435 233b 02da f838
00000080: 705f febe 26e5 5fbe 451a c4b8 2f05 4abe
00000090: 6ef0 e738 4ed8 50be 0a56 3f3b 6651 8bbe
000000a0: dfc2 a3be 7ed5 da37 b057 9037 50ca 3ebe
000000b0: 75ec 6bb6 0eec ca3a b31f dcb8 a8cd 9bbe
000000c0: 7063 b7be 3eeb 9ab8 3303 a935 a7d0 7d3b
000000d0: 4ed2 9cbe c4fb 4abb e45b 2737 0136 3c38
000000e0: a1eb 9cbe df6a 0dba 7297 08be 6ce2 5bbe
000000f0: 2f6f 57be b334 db37 255d 07b9 4e72 8fb8
00000100: 4ecf 4fbe 7109 273b f327 59b8 58ca c7b8
00000110: 1222 7cbe 69f8 9cbe 5e70 e5b8 9d34 dc37
00000120: b931 213b 3724 10bf a2fc eeb8 6097 ecbe
00000130: 82a7 aa38 38b5 7338 4142 0fbf 709a bb36
00000140: c732 ee3a 1dbb 26bb 5ae8 c5be b7b6 e338
00000150: c56e b3b8 f40b 0539 4286 53b8 2806 1e38
00000160: 5bc0 df3a 1dcb 193b 5186 cfbe e2dc 6db8
00000170: 014f f7b8 9d65 8fbb 1dd0 3bbe d9ed dabd
00000180: 98a8 c737 c9b0 c538 fdcf cebe 3be0 75b8
00000190: 11b4 b8ba 5c8e 2db6 b19f b737 357f 84bb
000001a0: b91f 8bbe b92a b5be e1b1 eebd b4ae febe
000001b0: da08 b3b8 e184 4439 7cf6 8eb7 b58c 1339
000001c0: 2f29 b8b9 c4cd 34b8 8873 91b7 dbc8 3cbd
000001d0: 1f4a cebe 77c4 d5b8 ccf5 c3bd 01a3 08ba
000001e0: e9a5 213d 6440 c3bc 5c1f 0239 bcba 0fbf
000001f0: d005 cfbe 6628 6bbe 80a5 d73a 87fc b7be
00000200: caec 12b9 0ec5 e03a 942c 3bbe 8b5b 3dba
00000210: 9ed7 cebe 4f43 b5be 407e edb9 f88a 94b8
00000220: def0 a3b8 0a5a 2fbb d39c 03b9 ca9f 5439
00000230: b181 e23a 04d3 0d3b 2d88 35b9 9cca 8ab8
00000240: fb91 9cbe 9c77 48be 7642 a238 09ef 9cbe
00000250: 433d 8bbe 6e26 0f39 a40a 6cbd d35b cb3a
00000260: f671 28b9 1fe9 343b 9351 d3b9 7c6f e2b6
00000270: 454e b6be a949 68b6 543e 0cbf b619 143c
00000280: 9d70 f738 b5a0 9cbe bdcb 3db9 47db 6abe
00000290: 1dc9 b5be d349 0eb9 a424 553b 1da3 9cbe
000002a0: 4624 3abe 24b2 2939 fa5d b4b8 f533 82b6
000002b0: 0e11 5ebe e124 beb8 f3d6 1f3b 445d bab8
000002c0: 2b34 0abe fc29 9fbe 714a 40b8 d3fd 80ba
000002d0: 8f4d 4fb9 8d81 46be d815 1e3b b0c0 f5be
000002e0: 07f9 03b6 4268 f037 2b39 0fbf f2a1 0abe
000002f0: fcb5 c5b6 539e 9b38 3954 9cbe 6782 a537
00000300: b842 0337 45a8 0f3b 7ba6 8aba db03 c438
00000310: e4ab 47be c89e 32b9 262f 0a38 db7e afb7
00000320: d0c1 d3b8 c365 cab7 fa1a 9ebe 1e43 4ebe
00000330: a155 9238 efba d53d 6caa 0fbf b13f dfba
00000340: a826 94be 0337 b938 3a9b 16be ccb1 b5be
00000350: ad7f 5cbe b4b8 b5be d68b d5b8 10be a83a
00000360: 7d59 8cba b21c 05bf 189b ccbe 755b f13a
00000370: b820 1e38 6946 ba3b fea6 cebd fa0a 6abe
00000380: adc0 9abe b3c4 3f39 4c9d bf37 3b36 fe3a
00000390: 73c6 6cb9 69e6 1bbb d7cf b2b6 d8b7 b8bd
000003a0: 1c2f 9abe 70d6 0339 fdbb 9bbe b1d7 4bbe
000003b0: 7c59 813b 8071 b6b8 a9ac 3f3b 39d6 afb8
000003c0: 96f9 95ba 5275 9cbe 0980 bdb8 fd83 3a3b
000003d0: a98d 4c3b a1b6 39bb 9d4c b23b eae7 01b9
000003e0: 982f b03a 96da b0bd da3b 3ebe 3f68 4738
000003f0: 40ea 083b 1648 0738 bf44 2eb8 153e 03bf
-0.14665732 -0.0001728605 -0.0010676733 -0.0008136681 -0.00018297517 -0.38626134 -0.22779314 -0.011198538
0.003021065 -4.801634e-06 4.3374846e-05 1.2240146e-05 2.5381301e-05 4.346103e-05 -2.0940228e-05 -0.00011628238
-0.00012359188 -0.54840636 -0.5203661 -0.0035714735 -0.0028430384 -0.27572533 -0.30521953 -0.00047679417
-0.5232426 -0.35626286 -0.0020429185 -0.0015812729 -0.00012828554 -0.0014834565 0.0024903724 0.00011866169
-0.49682188 -0.21864757 -9.3509014e-05 -0.1972854 0.00011059722 -0.20395014 0.002919557 -0.2721054
-0.31984612 2.608704e-05 1.720697e-05 -0.18631864 -3.5155365e-06 0.0015481727 -0.00010496322 -0.3043034
-0.35818052 -7.3871095e-05 1.2592412e-06 0.0038729103 -0.306292 -0.0030972818 9.975371e-06 4.4872988e-05
-0.3064852 -0.0005394648 -0.13339022 -0.21473092 -0.21038507 2.6131374e-05 -0.00012909302 -6.840062e-05
-0.20293924 0.0025487805 -5.1774037e-05 -9.526749e-05 -0.24622372 -0.30658272 -0.00010940501 2.6250544e-05
0.0024596287 -0.5630526 -0.00011395781 -0.4620924 8.1374325e-05 5.8104488e-05 -0.5596047 5.591013e-06
0.0018173092 -0.0025441118 -0.38653833 0.00010858237 -8.5560176e-05 0.00012688321 -5.0431358e-05 3.767587e-05
0.0017070876 0.0023467012 -0.40532163 -5.6710916e-05 -0.000117925934 -0.004376127 -0.18341108 -0.10689897
2.3801156e-05 9.426621e-05 -0.40393057 -5.8621383e-05 -0.001409175 -2.5861873e-06 2.1889662e-05 -0.0040434846
-0.2717264 -0.35384157 -0.116550215 -0.49742663 -8.537034e-05 0.00018741518 -1.7042497e-05 0.0001407143
-0.000351259 -4.310698e-05 -1.7339145e-05 -0.04608999 -0.40290925 -0.00010193226 -0.095683664 -0.0005212278
0.039464865 -0.023834415 0.00012409448 -0.5614431 -0.40434122 -0.2296463 0.0016452521 -0.3593485
-0.00014011856 0.0017148571 -0.18278724 -0.0007223419 -0.40398878 -0.35402915 -0.00045298226 -7.083075e-05
-7.817311e-05 -0.0026756548 -0.00012551555 0.00020277422 0.0017281083 0.0021640668 -0.00017312235 -6.618092e-05
-0.30580124 -0.19576877 7.737141e-05 -0.3065112 -0.27195176 0.00013651859 -0.057627335 0.0015515037
-0.00016064182 0.0027604771 -0.00040305834 -6.7483033e-06 -0.3560659 -3.461357e-06 -0.54782605 0.009039333
0.00011798854 -0.3059136 -0.00018100343 -0.2293521 -0.35505 -0.00013569677 0.003252306 -0.30593196
-0.181779 0.00016183459 -8.600573e-05 -3.8803505e-06 -0.21686193 -9.066775e-05 0.0024389594 -8.886543e-05
-0.13496463 -0.3108672 -4.5845696e-05 -0.000984127 -0.00019769951 -0.19385357 0.0024121907 -0.4799857
-1.9665474e-06 2.8658778e-05 -0.55946606 -0.1353834 -5.8922433e-06 7.420466e-05 -0.30533007 1.9730256e-05
7.823743e-06 0.0021920365 -0.001057818 9.3467264e-05 -0.19499165 -0.00017034553 3.2945674e-05 -2.0920697e-05
-0.000100973644 -2.4127663e-05 -0.30879956 -0.2014279 6.977772e-05 0.104360454 -0.5611942 -0.0017032531
-0.28935742 8.831734e-05 -0.14707652 -0.3548721 -0.2153308 -0.3549248 -0.00010182678 0.0012874026
-0.0010707822 -0.5199691 -0.39962077 0.0018414097 3.7700607e-05 0.005684663 -0.10090445 -0.2285575
-0.30225125 0.00018288456 2.2842221e-05 0.0019394824 -0.00022580642 -0.0023788458 -5.329009e-06 -0.090194404
-0.30114067 0.00012573018 -0.3041686 -0.19906498 0.003947435 -8.699577e-05 0.00292472 -8.384552e-05
-0.001144218 -0.30558258 -9.036071e-05 0.0028460019 0.0031212366 -0.0028337615 0.005441262 -0.00012388793
0.0013441918 -0.08635442 -0.18577519 4.7542384e-05 0.0020891577 3.2253643e-05 -4.1548858e-05 -0.51266605
